{
  "modelTopology": {
    "class_name": "Sequential",
    "config": {
      "name": "elevate_emotion_mlp",
      "layers": [
        {
          "class_name": "Dense",
          "config": {
            "name": "dense_1",
            "trainable": true,
            "batch_input_shape": [
              null,
              1764
            ],
            "dtype": "float32",
            "units": 512,
            "activation": "relu",
            "use_bias": true,
            "kernel_initializer": {
              "class_name": "GlorotUniform",
              "config": {
                "seed": null
              }
            },
            "bias_initializer": {
              "class_name": "Zeros",
              "config": {}
            },
            "kernel_regularizer": null,
            "bias_regularizer": null,
            "activity_regularizer": null,
            "kernel_constraint": null,
            "bias_constraint": null
          }
        },
        {
          "class_name": "Dense",
          "config": {
            "name": "dense_2",
            "trainable": true,
            "batch_input_shape": [
              null,
              512
            ],
            "dtype": "float32",
            "units": 128,
            "activation": "relu",
            "use_bias": true,
            "kernel_initializer": {
              "class_name": "GlorotUniform",
              "config": {
                "seed": null
              }
            },
            "bias_initializer": {
              "class_name": "Zeros",
              "config": {}
            },
            "kernel_regularizer": null,
            "bias_regularizer": null,
            "activity_regularizer": null,
            "kernel_constraint": null,
            "bias_constraint": null
          }
        },
        {
          "class_name": "Dense",
          "config": {
            "name": "dense_3",
            "trainable": true,
            "batch_input_shape": [
              null,
              128
            ],
            "dtype": "float32",
            "units": 7,
            "activation": "softmax",
            "use_bias": true,
            "kernel_initializer": {
              "class_name": "GlorotUniform",
              "config": {
                "seed": null
              }
            },
            "bias_initializer": {
              "class_name": "Zeros",
              "config": {}
            },
            "kernel_regularizer": null,
            "bias_regularizer": null,
            "activity_regularizer": null,
            "kernel_constraint": null,
            "bias_constraint": null
          }
        }
      ]
    },
    "keras_version": "tfjs-layers 4.22.0",
    "backend": "tensor_flow.js"
  },
  "format": "layers-model",
  "generatedBy": "train_emotion_fast.py (Elevate)",
  "convertedBy": null,
  "weightsManifest": [
    {
      "paths": [
        "group1-shard1of1.bin"
      ],
      "weights": [
        {
          "name": "dense_1/kernel",
          "shape": [
            1764,
            512
          ],
          "dtype": "float32"
        },
        {
          "name": "dense_1/bias",
          "shape": [
            512
          ],
          "dtype": "float32"
        },
        {
          "name": "dense_2/kernel",
          "shape": [
            512,
            128
          ],
          "dtype": "float32"
        },
        {
          "name": "dense_2/bias",
          "shape": [
            128
          ],
          "dtype": "float32"
        },
        {
          "name": "dense_3/kernel",
          "shape": [
            128,
            7
          ],
          "dtype": "float32"
        },
        {
          "name": "dense_3/bias",
          "shape": [
            7
          ],
          "dtype": "float32"
        },
        {
          "name": "scaler/mean",
          "shape": [
            1764
          ],
          "dtype": "float32"
        },
        {
          "name": "scaler/std",
          "shape": [
            1764
          ],
          "dtype": "float32"
        }
      ]
    }
  ],
  "elevate_meta": {
    "class_names": [
      "happy",
      "bored",
      "focused",
      "confused",
      "neutral",
      "angry",
      "surprised"
    ],
    "img_size": 48,
    "hog_orientations": 9,
    "hog_pixels_per_cell": [
      6,
      6
    ],
    "hog_cells_per_block": [
      2,
      2
    ],
    "feature_dim": 1764,
    "class_balance_weights": {
      "happy": 1.0827,
      "bored": 0.78,
      "focused": 0.78,
      "confused": 0.8474,
      "neutral": 1.32,
      "angry": 1.32,
      "surprised": 0.9599
    },
    "class_prior_multipliers": {
      "happy": 0.9998,
      "bored": 0.9998,
      "focused": 0.9998,
      "confused": 1.0013,
      "neutral": 0.9998,
      "angry": 0.9998,
      "surprised": 0.9998
    },
    "architecture": "HOG(48x48) \u2192 Dense(512,relu) \u2192 Dense(128,relu) \u2192 Dense(7,softmax)",
    "normalisation": "StandardScaler (zero-mean, unit-variance) \u2014 weights at scaler/mean and scaler/std",
    "scaler_mean": [
      … "scaler_std": [
      … 